…
I0207 00:37:27.379478 27764 net.cpp:275] The NetState phase (0) differed from the phase (1) specified by a rule in layer data
I0207 00:37:27.379493 27764 net.cpp:275] The NetState phase (0) differed from the phase (1) specified by a rule in layer regression_error
I0207 00:37:27.379611 27764 net.cpp:39] Initializing net from parameters: 
name: "LogisticRegressionNet"
layers {
  top: "data"
  top: "label"
  name: "data"
  type: HDF5_DATA
  hdf5_data_param {
    source: "/scratch/stephenchen/Dropbox/ShapeAttribute/caffe/examples/depthNet/trainFileList.txt"
    batch_size: 100
  }
  include {
    phase: TRAIN
  }
}
layers {
  bottom: "data"
  top: "conv1"
  name: "conv1"
  type: CONVOLUTION
  blobs_lr: 1
  blobs_lr: 2
  convolution_param {
    num_output: 64
    kernel_size: 9
    stride: 2
    weight_filler {
      type: "xavier"
    }
    bias_filler {
      type: "constant"
    }
  }
}
layers {
  bottom: "conv1"
  top: "conv1"
  name: "relu_conv1"
  type: RELU
}
layers {
  bottom: "conv1"
  top: "pool1"
  name: "pool1"
  type: POOLING
  pooling_param {
    pool: MAX
    kernel_size: 2
    stride: 2
  }
}
layers {
  bottom: "pool1"
  top: "conv2"
  name: "conv2"
  type: CONVOLUTION
  blobs_lr: 1
  blobs_lr: 2
  convolution_param {
    num_output: 64
    pad: 2
    kernel_size: 5
    stride: 1
    weight_filler {
      type: "xavier"
    }
    bias_filler {
      type: "constant"
    }
  }
}
layers {
  bottom: "conv2"
  top: "conv2"
  name: "relu_conv2"
  type: RELU
}
layers {
  bottom: "conv2"
  top: "conv3"
  name: "conv3"
  type: CONVOLUTION
  blobs_lr: 1
  blobs_lr: 2
  convolution_param {
    num_output: 1
    pad: 2
    kernel_size: 5
    weight_filler {
      type: "xavier"
    }
    bias_filler {
      type: "constant"
    }
  }
}
layers {
  bottom: "conv3"
  top: "conv3"
  name: "relu_conv3"
  type: RELU
}
layers {
  bottom: "conv3"
  bottom: "label"
  top: "loss"
  name: "loss"
  type: EUCLIDEAN_LOSS
}
state {
  phase: TRAIN
}
I0207 00:37:27.379716 27764 net.cpp:67] Creating Layer data
I0207 00:37:27.379726 27764 net.cpp:356] data -> data
I0207 00:37:27.379751 27764 net.cpp:356] data -> label
I0207 00:37:27.379770 27764 net.cpp:96] Setting up data
I0207 00:37:27.379778 27764 hdf5_data_layer.cpp:57] Loading filename from /scratch/stephenchen/Dropbox/ShapeAttribute/caffe/examples/depthNet/trainFileList.txt
I0207 00:37:27.421169 27764 hdf5_data_layer.cpp:69] Number of files: 30
I0207 00:37:27.421197 27764 hdf5_data_layer.cpp:29] Loading HDF5 file/scratch/stephenchen/Dropbox/ShapeAttribute/depthNet/hdf5/Train_Batch_500x500/TrainHDF_DepthNet_1_500x500.h5
I0207 00:38:14.930244 27764 hdf5_data_layer.cpp:49] Successully loaded 1167 rows
I0207 00:38:14.930296 27764 hdf5_data_layer.cpp:81] output data size: 100,3,500,500
I0207 00:38:14.930346 27764 net.cpp:103] Top shape: 100 3 500 500 (75000000)
I0207 00:38:14.930356 27764 net.cpp:103] Top shape: 100 1 123 123 (1512900)
I0207 00:38:14.930371 27764 net.cpp:67] Creating Layer conv1
I0207 00:38:14.930378 27764 net.cpp:394] conv1 <- data
I0207 00:38:14.930399 27764 net.cpp:356] conv1 -> conv1
I0207 00:38:14.930413 27764 net.cpp:96] Setting up conv1
I0207 00:38:14.931275 27764 net.cpp:103] Top shape: 100 64 246 246 (387302400)
I0207 00:38:14.931337 27764 net.cpp:67] Creating Layer relu_conv1
I0207 00:38:14.931344 27764 net.cpp:394] relu_conv1 <- conv1
I0207 00:38:14.931351 27764 net.cpp:345] relu_conv1 -> conv1 (in-place)
I0207 00:38:14.931360 27764 net.cpp:96] Setting up relu_conv1
I0207 00:38:14.931365 27764 net.cpp:103] Top shape: 100 64 246 246 (387302400)
I0207 00:38:14.931371 27764 net.cpp:67] Creating Layer pool1
I0207 00:38:14.931376 27764 net.cpp:394] pool1 <- conv1
I0207 00:38:14.931382 27764 net.cpp:356] pool1 -> pool1
I0207 00:38:14.931390 27764 net.cpp:96] Setting up pool1
I0207 00:38:14.931406 27764 net.cpp:103] Top shape: 100 64 123 123 (96825600)
I0207 00:38:14.931416 27764 net.cpp:67] Creating Layer conv2
I0207 00:38:14.931421 27764 net.cpp:394] conv2 <- pool1
I0207 00:38:14.931427 27764 net.cpp:356] conv2 -> conv2
I0207 00:38:14.931437 27764 net.cpp:96] Setting up conv2
I0207 00:38:14.932503 27764 net.cpp:103] Top shape: 100 64 123 123 (96825600)
I0207 00:38:14.932520 27764 net.cpp:67] Creating Layer relu_conv2
I0207 00:38:14.932526 27764 net.cpp:394] relu_conv2 <- conv2
I0207 00:38:14.932533 27764 net.cpp:345] relu_conv2 -> conv2 (in-place)
I0207 00:38:14.932539 27764 net.cpp:96] Setting up relu_conv2
I0207 00:38:14.932556 27764 net.cpp:103] Top shape: 100 64 123 123 (96825600)
I0207 00:38:14.932565 27764 net.cpp:67] Creating Layer conv3
I0207 00:38:14.932570 27764 net.cpp:394] conv3 <- conv2
I0207 00:38:14.932577 27764 net.cpp:356] conv3 -> conv3
I0207 00:38:14.932585 27764 net.cpp:96] Setting up conv3
I0207 00:38:14.932628 27764 net.cpp:103] Top shape: 100 1 123 123 (1512900)
I0207 00:38:14.932641 27764 net.cpp:67] Creating Layer relu_conv3
I0207 00:38:14.932647 27764 net.cpp:394] relu_conv3 <- conv3
I0207 00:38:14.932653 27764 net.cpp:345] relu_conv3 -> conv3 (in-place)
I0207 00:38:14.932660 27764 net.cpp:96] Setting up relu_conv3
I0207 00:38:14.932665 27764 net.cpp:103] Top shape: 100 1 123 123 (1512900)
I0207 00:38:14.932673 27764 net.cpp:67] Creating Layer loss
I0207 00:38:14.932677 27764 net.cpp:394] loss <- conv3
I0207 00:38:14.932683 27764 net.cpp:394] loss <- label
I0207 00:38:14.932689 27764 net.cpp:356] loss -> loss
I0207 00:38:14.932696 27764 net.cpp:96] Setting up loss
I0207 00:38:14.932705 27764 net.cpp:103] Top shape: 1 1 1 1 (1)
I0207 00:38:14.932710 27764 net.cpp:109]     with loss weight 1
I0207 00:38:14.932762 27764 net.cpp:170] loss needs backward computation.
I0207 00:38:14.932768 27764 net.cpp:170] relu_conv3 needs backward computation.
I0207 00:38:14.932773 27764 net.cpp:170] conv3 needs backward computation.
I0207 00:38:14.932777 27764 net.cpp:170] relu_conv2 needs backward computation.
I0207 00:38:14.932782 27764 net.cpp:170] conv2 needs backward computation.
…
I0207 00:38:14.933163 27764 solver.cpp:151] Creating test net (#0) specified by net file: examples/depthNet/train_val.prototxt
I0207 00:38:14.933192 27764 net.cpp:275] The NetState phase (1) differed from the phase (0) specified by a rule in layer data
I0207 00:38:14.933334 27764 net.cpp:39] Initializing net from parameters: 
name: "LogisticRegressionNet"
layers {
  top: "data"
  top: "label"
  name: "data"
  type: HDF5_DATA
  hdf5_data_param {
    source: "/scratch/stephenchen/Dropbox/ShapeAttribute/caffe/examples/depthNet/testFileList.txt"
    batch_size: 10
  }
  include {
    phase: TEST
  }
}
layers {
  bottom: "data"
  top: "conv1"
  name: "conv1"
  type: CONVOLUTION
  blobs_lr: 1
  blobs_lr: 2
  convolution_param {
    num_output: 64
    kernel_size: 9
    stride: 2
    weight_filler {
      type: "xavier"
    }
    bias_filler {
      type: "constant"
    }
  }
}
layers {
  bottom: "conv1"
  top: "conv1"
  name: "relu_conv1"
  type: RELU
}
layers {
  bottom: "conv1"
  top: "pool1"
  name: "pool1"
  type: POOLING
  pooling_param {
    pool: MAX
    kernel_size: 2
    stride: 2
  }
}
layers {
  bottom: "pool1"
  top: "conv2"
  name: "conv2"
  type: CONVOLUTION
  blobs_lr: 1
  blobs_lr: 2
  convolution_param {
    num_output: 64
    pad: 2
    kernel_size: 5
    stride: 1
    weight_filler {
      type: "xavier"
    }
    bias_filler {
      type: "constant"
    }
  }
}
layers {
  bottom: "conv2"
  top: "conv2"
  name: "relu_conv2"
  type: RELU
}
layers {
  bottom: "conv2"
  top: "conv3"
  name: "conv3"
  type: CONVOLUTION
  blobs_lr: 1
  blobs_lr: 2
  convolution_param {
    num_output: 1
    pad: 2
    kernel_size: 5
    weight_filler {
      type: "xavier"
    }
    bias_filler {
      type: "constant"
    }
  }
}
layers {
  bottom: "conv3"
  top: "conv3"
  name: "relu_conv3"
  type: RELU
}
layers {
  bottom: "conv3"
  bottom: "label"
  top: "regression_error"
  name: "regression_error"
  type: REGRESSION_ERROR
  include {
    phase: TEST
  }
}
layers {
  bottom: "conv3"
  bottom: "label"
  top: "loss"
  name: "loss"
  type: EUCLIDEAN_LOSS
}
state {
  phase: TEST
}
I0207 00:38:14.933465 27764 net.cpp:67] Creating Layer data
I0207 00:38:14.933475 27764 net.cpp:356] data -> data
I0207 00:38:14.933485 27764 net.cpp:356] data -> label
I0207 00:38:14.933492 27764 net.cpp:96] Setting up data
I0207 00:38:14.933497 27764 hdf5_data_layer.cpp:57] Loading filename from /scratch/stephenchen/Dropbox/ShapeAttribute/caffe/examples/depthNet/testFileList.txt
I0207 00:38:14.949790 27764 hdf5_data_layer.cpp:69] Number of files: 20
I0207 00:38:14.949803 27764 hdf5_data_layer.cpp:29] Loading HDF5 file/scratch/stephenchen/Dropbox/ShapeAttribute/depthNet/hdf5/Test_Batch_500x500/TestHDF_DepthNet_1_500x500.h5
I0207 00:39:11.326334 27764 hdf5_data_layer.cpp:49] Successully loaded 1167 rows
I0207 00:39:11.343844 27764 hdf5_data_layer.cpp:81] output data size: 10,3,500,500
I0207 00:39:11.343865 27764 net.cpp:103] Top shape: 10 3 500 500 (7500000)
I0207 00:39:11.343878 27764 net.cpp:103] Top shape: 10 1 123 123 (151290)
I0207 00:39:11.343899 27764 net.cpp:67] Creating Layer label_data_1_split
I0207 00:39:11.343909 27764 net.cpp:394] label_data_1_split <- label
I0207 00:39:11.343922 27764 net.cpp:356] label_data_1_split -> label_data_1_split_0
I0207 00:39:11.343942 27764 net.cpp:356] label_data_1_split -> label_data_1_split_1
I0207 00:39:11.343950 27764 net.cpp:96] Setting up label_data_1_split
I0207 00:39:11.343957 27764 net.cpp:103] Top shape: 10 1 123 123 (151290)
I0207 00:39:11.343962 27764 net.cpp:103] Top shape: 10 1 123 123 (151290)
I0207 00:39:11.343972 27764 net.cpp:67] Creating Layer conv1
I0207 00:39:11.343977 27764 net.cpp:394] conv1 <- data
I0207 00:39:11.343984 27764 net.cpp:356] conv1 -> conv1
I0207 00:39:11.343992 27764 net.cpp:96] Setting up conv1
I0207 00:39:11.344305 27764 net.cpp:103] Top shape: 10 64 246 246 (38730240)
I0207 00:39:11.344326 27764 net.cpp:67] Creating Layer relu_conv1
I0207 00:39:11.344332 27764 net.cpp:394] relu_conv1 <- conv1
I0207 00:39:11.344339 27764 net.cpp:345] relu_conv1 -> conv1 (in-place)
I0207 00:39:11.344347 27764 net.cpp:96] Setting up relu_conv1
I0207 00:39:11.344352 27764 net.cpp:103] Top shape: 10 64 246 246 (38730240)
I0207 00:39:11.344360 27764 net.cpp:67] Creating Layer pool1
I0207 00:39:11.344365 27764 net.cpp:394] pool1 <- conv1
I0207 00:39:11.344372 27764 net.cpp:356] pool1 -> pool1
I0207 00:39:11.344379 27764 net.cpp:96] Setting up pool1
I0207 00:39:11.344405 27764 net.cpp:103] Top shape: 10 64 123 123 (9682560)
I0207 00:39:11.344415 27764 net.cpp:67] Creating Layer conv2
I0207 00:39:11.344420 27764 net.cpp:394] conv2 <- pool1
I0207 00:39:11.344427 27764 net.cpp:356] conv2 -> conv2
I0207 00:39:11.344435 27764 net.cpp:96] Setting up conv2
I0207 00:39:11.345549 27764 net.cpp:103] Top shape: 10 64 123 123 (9682560)
I0207 00:39:11.345574 27764 net.cpp:67] Creating Layer relu_conv2
I0207 00:39:11.345582 27764 net.cpp:394] relu_conv2 <- conv2
I0207 00:39:11.345592 27764 net.cpp:345] relu_conv2 -> conv2 (in-place)
I0207 00:39:11.345602 27764 net.cpp:96] Setting up relu_conv2
I0207 00:39:11.345609 27764 net.cpp:103] Top shape: 10 64 123 123 (9682560)
I0207 00:39:11.345620 27764 net.cpp:67] Creating Layer conv3
I0207 00:39:11.345628 27764 net.cpp:394] conv3 <- conv2
I0207 00:39:11.345638 27764 net.cpp:356] conv3 -> conv3
I0207 00:39:11.345649 27764 net.cpp:96] Setting up conv3
I0207 00:39:11.345715 27764 net.cpp:103] Top shape: 10 1 123 123 (151290)
I0207 00:39:11.345734 27764 net.cpp:67] Creating Layer relu_conv3
I0207 00:39:11.345743 27764 net.cpp:394] relu_conv3 <- conv3
I0207 00:39:11.345752 27764 net.cpp:345] relu_conv3 -> conv3 (in-place)
I0207 00:39:11.345762 27764 net.cpp:96] Setting up relu_conv3
I0207 00:39:11.345769 27764 net.cpp:103] Top shape: 10 1 123 123 (151290)
I0207 00:39:11.345779 27764 net.cpp:67] Creating Layer conv3_relu_conv3_0_split
I0207 00:39:11.345787 27764 net.cpp:394] conv3_relu_conv3_0_split <- conv3
I0207 00:39:11.345795 27764 net.cpp:356] conv3_relu_conv3_0_split -> conv3_relu_conv3_0_split_0
I0207 00:39:11.345808 27764 net.cpp:356] conv3_relu_conv3_0_split -> conv3_relu_conv3_0_split_1
I0207 00:39:11.345819 27764 net.cpp:96] Setting up conv3_relu_conv3_0_split
I0207 00:39:11.345829 27764 net.cpp:103] Top shape: 10 1 123 123 (151290)
I0207 00:39:11.345835 27764 net.cpp:103] Top shape: 10 1 123 123 (151290)
I0207 00:39:11.345846 27764 net.cpp:67] Creating Layer regression_error
I0207 00:39:11.345854 27764 net.cpp:394] regression_error <- conv3_relu_conv3_0_split_0
I0207 00:39:11.345862 27764 net.cpp:394] regression_error <- label_data_1_split_0
I0207 00:39:11.345872 27764 net.cpp:356] regression_error -> regression_error
I0207 00:39:11.345883 27764 net.cpp:96] Setting up regression_error
I0207 00:39:11.345891 27764 net.cpp:103] Top shape: 1 1 1 1 (1)
I0207 00:39:11.345901 27764 net.cpp:67] Creating Layer loss
I0207 00:39:11.345908 27764 net.cpp:394] loss <- conv3_relu_conv3_0_split_1
I0207 00:39:11.345939 27764 net.cpp:394] loss <- label_data_1_split_1
I0207 00:39:11.345950 27764 net.cpp:356] loss -> loss
I0207 00:39:11.345962 27764 net.cpp:96] Setting up loss
I0207 00:39:11.345970 27764 net.cpp:103] Top shape: 1 1 1 1 (1)
I0207 00:39:11.345978 27764 net.cpp:109]     with loss weight 1
I0207 00:39:11.345994 27764 net.cpp:170] loss needs backward computation.
I0207 00:39:11.346001 27764 net.cpp:172] regression_error does not need backward computation.
I0207 00:39:11.346009 27764 net.cpp:170] conv3_relu_conv3_0_split needs backward computation.
I0207 00:39:11.346016 27764 net.cpp:170] relu_conv3 needs backward computation.
…
